#loc = loc("/home/hwu27/workspace/triton-viz/tests/golden/ttgir/generate_golden.py":147:0)
#loc12 = loc("x_ptr"(#loc))
#loc13 = loc("out_ptr"(#loc))
#loc14 = loc("n_elements"(#loc))
module {
  tt.func public @atomic_fmax_kernel(%x_ptr: !tt.ptr<f32> {tt.divisibility = 16 : i32} loc("x_ptr"(#loc)), %out_ptr: !tt.ptr<f32> {tt.divisibility = 16 : i32} loc("out_ptr"(#loc)), %n_elements: i32 {tt.divisibility = 16 : i32} loc("n_elements"(#loc))) attributes {noinline = false} {
    %cst = arith.constant dense<true> : tensor<256xi1> loc(#loc1)
    %cst_0 = arith.constant dense<0> : tensor<256xi32> loc(#loc1)
    %cst_1 = arith.constant dense<31> : tensor<256xi32> loc(#loc1)
    %v = arith.constant dense<0.000000e+00> : tensor<256xf32> loc(#loc15)
    %c256_i32 = arith.constant 256 : i32 loc(#loc3)
    %pid = tt.get_program_id x : i32 loc(#loc16)
    %offs = arith.muli %pid, %c256_i32 : i32 loc(#loc17)
    %offs_2 = tt.make_range {end = 256 : i32, start = 0 : i32} : tensor<256xi32> loc(#loc18)
    %offs_3 = tt.splat %offs : i32 -> tensor<256xi32> loc(#loc19)
    %offs_4 = arith.addi %offs_3, %offs_2 : tensor<256xi32> loc(#loc19)
    %mask = tt.splat %n_elements : i32 -> tensor<256xi32> loc(#loc20)
    %mask_5 = arith.cmpi slt, %offs_4, %mask : tensor<256xi32> loc(#loc20)
    %v_6 = tt.splat %x_ptr : !tt.ptr<f32> -> tensor<256x!tt.ptr<f32>> loc(#loc21)
    %v_7 = tt.addptr %v_6, %offs_4 : tensor<256x!tt.ptr<f32>>, tensor<256xi32> loc(#loc21)
    %v_8 = tt.load %v_7, %mask_5, %v : tensor<256x!tt.ptr<f32>> loc(#loc15)
    %0 = tt.splat %out_ptr : !tt.ptr<f32> -> tensor<256x!tt.ptr<f32>> loc(#loc10)
    %1 = tt.addptr %0, %offs_4 : tensor<256x!tt.ptr<f32>>, tensor<256xi32> loc(#loc10)
    %2 = tt.bitcast %v_8 : tensor<256xf32> -> tensor<256xi32> loc(#loc1)
    %3 = tt.bitcast %1 : tensor<256x!tt.ptr<f32>> -> tensor<256x!tt.ptr<i32>> loc(#loc1)
    %4 = arith.shrui %2, %cst_1 : tensor<256xi32> loc(#loc1)
    %5 = arith.cmpi ne, %4, %cst_0 : tensor<256xi32> loc(#loc1)
    %6 = arith.xori %5, %cst : tensor<256xi1> loc(#loc1)
    %7 = arith.andi %mask_5, %6 : tensor<256xi1> loc(#loc1)
    %8 = tt.atomic_rmw max, acq_rel, gpu, %3, %2, %7 : (tensor<256x!tt.ptr<i32>>, tensor<256xi32>, tensor<256xi1>) -> tensor<256xi32> loc(#loc1)
    %9 = arith.andi %mask_5, %5 : tensor<256xi1> loc(#loc1)
    %10 = tt.atomic_rmw umin, acq_rel, gpu, %3, %2, %9 : (tensor<256x!tt.ptr<i32>>, tensor<256xi32>, tensor<256xi1>) -> tensor<256xi32> loc(#loc1)
    tt.return loc(#loc11)
  } loc(#loc)
} loc(#loc)
#loc1 = loc("/home/hwu27/workspace/triton-viz/tests/golden/ttgir/generate_golden.py":155:34)
#loc2 = loc("/home/hwu27/workspace/triton-viz/tests/golden/ttgir/generate_golden.py":154:16)
#loc3 = loc(unknown)
#loc4 = loc("/home/hwu27/workspace/triton-viz/tests/golden/ttgir/generate_golden.py":151:24)
#loc5 = loc("/home/hwu27/workspace/triton-viz/tests/golden/ttgir/generate_golden.py":152:17)
#loc6 = loc("/home/hwu27/workspace/triton-viz/tests/golden/ttgir/generate_golden.py":152:38)
#loc7 = loc("/home/hwu27/workspace/triton-viz/tests/golden/ttgir/generate_golden.py":152:25)
#loc8 = loc("/home/hwu27/workspace/triton-viz/tests/golden/ttgir/generate_golden.py":153:18)
#loc9 = loc("/home/hwu27/workspace/triton-viz/tests/golden/ttgir/generate_golden.py":154:24)
#loc10 = loc("/home/hwu27/workspace/triton-viz/tests/golden/ttgir/generate_golden.py":155:28)
#loc11 = loc("/home/hwu27/workspace/triton-viz/tests/golden/ttgir/generate_golden.py":155:4)
#loc15 = loc("v"(#loc2))
#loc16 = loc("pid"(#loc4))
#loc17 = loc("offs"(#loc5))
#loc18 = loc("offs"(#loc6))
#loc19 = loc("offs"(#loc7))
#loc20 = loc("mask"(#loc8))
#loc21 = loc("v"(#loc9))
