#loc = loc("/home/hwu27/workspace/triton-viz/tests/golden/ttgir/generate_golden.py":133:0)
#loc14 = loc("x_ptr"(#loc))
#loc15 = loc("out_ptr"(#loc))
#loc16 = loc("n_elements"(#loc))
module {
  tt.func public @atomic_kernel(%x_ptr: !tt.ptr<f32> {tt.divisibility = 16 : i32} loc("x_ptr"(#loc)), %out_ptr: !tt.ptr<f32> {tt.divisibility = 16 : i32} loc("out_ptr"(#loc)), %n_elements: i32 {tt.divisibility = 16 : i32} loc("n_elements"(#loc))) attributes {noinline = false} {
    %old = arith.constant dense<true> : tensor<256xi1> loc(#loc17)
    %v = arith.constant dense<0.000000e+00> : tensor<256xf32> loc(#loc18)
    %c256_i32 = arith.constant 256 : i32 loc(#loc3)
    %pid = tt.get_program_id x : i32 loc(#loc19)
    %offs = arith.muli %pid, %c256_i32 : i32 loc(#loc20)
    %offs_0 = tt.make_range {end = 256 : i32, start = 0 : i32} : tensor<256xi32> loc(#loc21)
    %offs_1 = tt.splat %offs : i32 -> tensor<256xi32> loc(#loc22)
    %offs_2 = arith.addi %offs_1, %offs_0 : tensor<256xi32> loc(#loc22)
    %mask = tt.splat %n_elements : i32 -> tensor<256xi32> loc(#loc23)
    %mask_3 = arith.cmpi slt, %offs_2, %mask : tensor<256xi32> loc(#loc23)
    %v_4 = tt.splat %x_ptr : !tt.ptr<f32> -> tensor<256x!tt.ptr<f32>> loc(#loc24)
    %v_5 = tt.addptr %v_4, %offs_2 : tensor<256x!tt.ptr<f32>>, tensor<256xi32> loc(#loc24)
    %v_6 = tt.load %v_5, %mask_3, %v : tensor<256x!tt.ptr<f32>> loc(#loc18)
    %0 = tt.splat %out_ptr : !tt.ptr<f32> -> tensor<256x!tt.ptr<f32>> loc(#loc10)
    %1 = tt.addptr %0, %offs_2 : tensor<256x!tt.ptr<f32>>, tensor<256xi32> loc(#loc10)
    %2 = tt.atomic_rmw fadd, acq_rel, gpu, %1, %v_6, %mask_3 : (tensor<256x!tt.ptr<f32>>, tensor<256xf32>, tensor<256xi1>) -> tensor<256xf32> loc(#loc11)
    %old_7 = tt.atomic_rmw exch, acq_rel, gpu, %1, %v_6, %old : (tensor<256x!tt.ptr<f32>>, tensor<256xf32>, tensor<256xi1>) -> tensor<256xf32> loc(#loc17)
    tt.store %v_5, %old_7, %mask_3 : tensor<256x!tt.ptr<f32>> loc(#loc12)
    tt.return loc(#loc13)
  } loc(#loc)
} loc(#loc)
#loc1 = loc("/home/hwu27/workspace/triton-viz/tests/golden/ttgir/generate_golden.py":142:41)
#loc2 = loc("/home/hwu27/workspace/triton-viz/tests/golden/ttgir/generate_golden.py":140:16)
#loc3 = loc(unknown)
#loc4 = loc("/home/hwu27/workspace/triton-viz/tests/golden/ttgir/generate_golden.py":137:24)
#loc5 = loc("/home/hwu27/workspace/triton-viz/tests/golden/ttgir/generate_golden.py":138:17)
#loc6 = loc("/home/hwu27/workspace/triton-viz/tests/golden/ttgir/generate_golden.py":138:38)
#loc7 = loc("/home/hwu27/workspace/triton-viz/tests/golden/ttgir/generate_golden.py":138:25)
#loc8 = loc("/home/hwu27/workspace/triton-viz/tests/golden/ttgir/generate_golden.py":139:18)
#loc9 = loc("/home/hwu27/workspace/triton-viz/tests/golden/ttgir/generate_golden.py":140:24)
#loc10 = loc("/home/hwu27/workspace/triton-viz/tests/golden/ttgir/generate_golden.py":141:28)
#loc11 = loc("/home/hwu27/workspace/triton-viz/tests/golden/ttgir/generate_golden.py":141:34)
#loc12 = loc("/home/hwu27/workspace/triton-viz/tests/golden/ttgir/generate_golden.py":143:27)
#loc13 = loc("/home/hwu27/workspace/triton-viz/tests/golden/ttgir/generate_golden.py":143:4)
#loc17 = loc("old"(#loc1))
#loc18 = loc("v"(#loc2))
#loc19 = loc("pid"(#loc4))
#loc20 = loc("offs"(#loc5))
#loc21 = loc("offs"(#loc6))
#loc22 = loc("offs"(#loc7))
#loc23 = loc("mask"(#loc8))
#loc24 = loc("v"(#loc9))
