#loc = loc("/home/hwu27/workspace/triton-viz/tests/golden/ttgir/generate_golden.py":192:0)
#loc16 = loc("x_ptr"(#loc))
#loc17 = loc("y_ptr"(#loc))
#loc18 = loc("out_ptr"(#loc))
#loc19 = loc("n_elements"(#loc))
module {
  tt.func public @if_else_load_kernel(%x_ptr: !tt.ptr<f32> {tt.divisibility = 16 : i32} loc("x_ptr"(#loc)), %y_ptr: !tt.ptr<f32> {tt.divisibility = 16 : i32} loc("y_ptr"(#loc)), %out_ptr: !tt.ptr<f32> {tt.divisibility = 16 : i32} loc("out_ptr"(#loc)), %n_elements: i32 {tt.divisibility = 16 : i32} loc("n_elements"(#loc))) attributes {noinline = false} {
    %c0_i32 = arith.constant 0 : i32 loc(#loc1)
    %c256_i32 = arith.constant 256 : i32 loc(#loc2)
    %pid = tt.get_program_id x : i32 loc(#loc20)
    %offs = arith.muli %pid, %c256_i32 : i32 loc(#loc21)
    %offs_0 = tt.make_range {end = 256 : i32, start = 0 : i32} : tensor<256xi32> loc(#loc22)
    %offs_1 = tt.splat %offs : i32 -> tensor<256xi32> loc(#loc23)
    %offs_2 = arith.addi %offs_1, %offs_0 : tensor<256xi32> loc(#loc23)
    %mask = tt.splat %n_elements : i32 -> tensor<256xi32> loc(#loc24)
    %mask_3 = arith.cmpi slt, %offs_2, %mask : tensor<256xi32> loc(#loc24)
    %0 = arith.cmpi eq, %pid, %c0_i32 : i32 loc(#loc1)
    %1 = scf.if %0 -> (tensor<256xf32>) {
      %v = tt.splat %x_ptr : !tt.ptr<f32> -> tensor<256x!tt.ptr<f32>> loc(#loc25)
      %v_4 = tt.addptr %v, %offs_2 : tensor<256x!tt.ptr<f32>>, tensor<256xi32> loc(#loc25)
      %v_5 = tt.load %v_4, %mask_3 : tensor<256x!tt.ptr<f32>> loc(#loc29)
      scf.yield %v_5 : tensor<256xf32> loc(#loc29)
    } else {
      %v = tt.splat %y_ptr : !tt.ptr<f32> -> tensor<256x!tt.ptr<f32>> loc(#loc27)
      %v_4 = tt.addptr %v, %offs_2 : tensor<256x!tt.ptr<f32>>, tensor<256xi32> loc(#loc27)
      %v_5 = tt.load %v_4, %mask_3 : tensor<256x!tt.ptr<f32>> loc(#loc30)
      scf.yield %v_5 : tensor<256xf32> loc(#loc28)
    } loc(#loc8)
    %2 = tt.splat %out_ptr : !tt.ptr<f32> -> tensor<256x!tt.ptr<f32>> loc(#loc13)
    %3 = tt.addptr %2, %offs_2 : tensor<256x!tt.ptr<f32>>, tensor<256xi32> loc(#loc13)
    tt.store %3, %1, %mask_3 : tensor<256x!tt.ptr<f32>> loc(#loc14)
    tt.return loc(#loc15)
  } loc(#loc)
} loc(#loc)
#loc1 = loc("/home/hwu27/workspace/triton-viz/tests/golden/ttgir/generate_golden.py":199:14)
#loc2 = loc(unknown)
#loc3 = loc("/home/hwu27/workspace/triton-viz/tests/golden/ttgir/generate_golden.py":196:24)
#loc4 = loc("/home/hwu27/workspace/triton-viz/tests/golden/ttgir/generate_golden.py":197:17)
#loc5 = loc("/home/hwu27/workspace/triton-viz/tests/golden/ttgir/generate_golden.py":197:38)
#loc6 = loc("/home/hwu27/workspace/triton-viz/tests/golden/ttgir/generate_golden.py":197:25)
#loc7 = loc("/home/hwu27/workspace/triton-viz/tests/golden/ttgir/generate_golden.py":198:18)
#loc8 = loc("/home/hwu27/workspace/triton-viz/tests/golden/ttgir/generate_golden.py":199:7)
#loc9 = loc("/home/hwu27/workspace/triton-viz/tests/golden/ttgir/generate_golden.py":200:28)
#loc10 = loc("/home/hwu27/workspace/triton-viz/tests/golden/ttgir/generate_golden.py":200:20)
#loc11 = loc("/home/hwu27/workspace/triton-viz/tests/golden/ttgir/generate_golden.py":202:28)
#loc12 = loc("/home/hwu27/workspace/triton-viz/tests/golden/ttgir/generate_golden.py":202:20)
#loc13 = loc("/home/hwu27/workspace/triton-viz/tests/golden/ttgir/generate_golden.py":203:23)
#loc14 = loc("/home/hwu27/workspace/triton-viz/tests/golden/ttgir/generate_golden.py":203:29)
#loc15 = loc("/home/hwu27/workspace/triton-viz/tests/golden/ttgir/generate_golden.py":203:4)
#loc20 = loc("pid"(#loc3))
#loc21 = loc("offs"(#loc4))
#loc22 = loc("offs"(#loc5))
#loc23 = loc("offs"(#loc6))
#loc24 = loc("mask"(#loc7))
#loc25 = loc("v"(#loc9))
#loc26 = loc("v"(#loc10))
#loc27 = loc("v"(#loc11))
#loc28 = loc("v"(#loc12))
#loc29 = loc("v"(#loc26))
#loc30 = loc("v"(#loc28))
