#loc = loc("/home/hwu27/workspace/triton-viz/tests/golden/ttgir/generate_golden.py":67:0)
#loc22 = loc("a_ptr"(#loc))
#loc23 = loc("b_ptr"(#loc))
#loc24 = loc("c_ptr"(#loc))
#loc25 = loc("M"(#loc))
#loc26 = loc("N"(#loc))
#loc27 = loc("K"(#loc))
#loc28 = loc("stride_am"(#loc))
#loc29 = loc("stride_bk"(#loc))
#loc30 = loc("stride_cm"(#loc))
module {
  tt.func public @matmul_blockptr_kernel(%a_ptr: !tt.ptr<f16> {tt.divisibility = 16 : i32} loc("a_ptr"(#loc)), %b_ptr: !tt.ptr<f16> {tt.divisibility = 16 : i32} loc("b_ptr"(#loc)), %c_ptr: !tt.ptr<f16> {tt.divisibility = 16 : i32} loc("c_ptr"(#loc)), %M: i32 {tt.divisibility = 16 : i32} loc("M"(#loc)), %N: i32 {tt.divisibility = 16 : i32} loc("N"(#loc)), %K: i32 {tt.divisibility = 16 : i32} loc("K"(#loc)), %stride_am: i32 {tt.divisibility = 16 : i32} loc("stride_am"(#loc)), %stride_bk: i32 {tt.divisibility = 16 : i32} loc("stride_bk"(#loc)), %stride_cm: i32 {tt.divisibility = 16 : i32} loc("stride_cm"(#loc))) attributes {noinline = false} {
    %c32_i64 = arith.constant 32 : i64 loc(#loc1)
    %cst = arith.constant dense<0> : tensor<1x64xi64> loc(#loc1)
    %cst_0 = arith.constant dense<0> : tensor<32x1xi64> loc(#loc1)
    %cst_1 = arith.constant dense<0> : tensor<1x32xi64> loc(#loc1)
    %cst_2 = arith.constant dense<0> : tensor<64x1xi64> loc(#loc1)
    %c0_i64 = arith.constant 0 : i64 loc(#loc1)
    %c31_i32 = arith.constant 31 : i32 loc(#loc31)
    %c1_i32 = arith.constant 1 : i32 loc(#loc3)
    %c32_i32 = arith.constant 32 : i32 loc(#loc1)
    %cst_3 = arith.constant dense<0.000000e+00> : tensor<64x64xf32> loc(#loc1)
    %c0_i32 = arith.constant 0 : i32 loc(#loc1)
    %c64_i32 = arith.constant 64 : i32 loc(#loc1)
    %pid_m = tt.get_program_id x : i32 loc(#loc32)
    %pid_n = tt.get_program_id y : i32 loc(#loc33)
    %a_bp = arith.muli %pid_m, %c64_i32 : i32 loc(#loc34)
    %a_bp_4 = arith.extsi %M : i32 to i64 loc(#loc35)
    %a_bp_5 = arith.extsi %K : i32 to i64 loc(#loc35)
    %a_bp_6 = arith.extsi %stride_am : i32 to i64 loc(#loc35)
    %a_bp_7 = arith.extsi %a_bp : i32 to i64 loc(#loc35)
    %b_bp = arith.muli %pid_n, %c64_i32 : i32 loc(#loc36)
    %b_bp_8 = arith.extsi %N : i32 to i64 loc(#loc37)
    %b_bp_9 = arith.extsi %stride_bk : i32 to i64 loc(#loc37)
    %b_bp_10 = arith.extsi %b_bp : i32 to i64 loc(#loc37)
    %0 = arith.addi %K, %c31_i32 : i32 loc(#loc38)
    %1 = arith.divsi %0, %c32_i32 : i32 loc(#loc39)
    %acc:3 = scf.for %acc_11 = %c0_i32 to %1 step %c1_i32 iter_args(%a_bp_12 = %c0_i64, %b_bp_13 = %c0_i64, %arg12 = %cst_3) -> (i64, i64, tensor<64x64xf32>)  : i32 {
      %a = tt.splat %a_ptr : !tt.ptr<f16> -> tensor<64x32x!tt.ptr<f16>> loc(#loc41)
      %a_14 = tt.splat %a_bp_7 : i64 -> tensor<64xi64> loc(#loc41)
      %a_15 = tt.make_range {end = 64 : i32, start = 0 : i32} : tensor<64xi32> loc(#loc41)
      %a_16 = arith.extsi %a_15 : tensor<64xi32> to tensor<64xi64> loc(#loc41)
      %a_17 = arith.addi %a_14, %a_16 : tensor<64xi64> loc(#loc41)
      %a_18 = tt.expand_dims %a_17 {axis = 1 : i32} : tensor<64xi64> -> tensor<64x1xi64> loc(#loc41)
      %a_19 = tt.splat %a_bp_6 : i64 -> tensor<64x1xi64> loc(#loc41)
      %a_20 = arith.muli %a_18, %a_19 : tensor<64x1xi64> loc(#loc41)
      %a_21 = tt.broadcast %a_20 : tensor<64x1xi64> -> tensor<64x32xi64> loc(#loc41)
      %a_22 = tt.splat %a_bp_12 : i64 -> tensor<32xi64> loc(#loc41)
      %a_23 = tt.make_range {end = 32 : i32, start = 0 : i32} : tensor<32xi32> loc(#loc41)
      %a_24 = arith.extsi %a_23 : tensor<32xi32> to tensor<32xi64> loc(#loc41)
      %a_25 = arith.addi %a_22, %a_24 : tensor<32xi64> loc(#loc41)
      %a_26 = tt.expand_dims %a_25 {axis = 0 : i32} : tensor<32xi64> -> tensor<1x32xi64> loc(#loc41)
      %a_27 = tt.broadcast %a_26 : tensor<1x32xi64> -> tensor<64x32xi64> loc(#loc41)
      %a_28 = arith.addi %a_21, %a_27 : tensor<64x32xi64> loc(#loc41)
      %a_29 = tt.addptr %a, %a_28 : tensor<64x32x!tt.ptr<f16>>, tensor<64x32xi64> loc(#loc41)
      %a_30 = arith.cmpi sge, %a_18, %cst_2 : tensor<64x1xi64> loc(#loc41)
      %a_31 = tt.splat %a_bp_4 : i64 -> tensor<64x1xi64> loc(#loc41)
      %a_32 = arith.cmpi slt, %a_18, %a_31 : tensor<64x1xi64> loc(#loc41)
      %a_33 = arith.andi %a_30, %a_32 : tensor<64x1xi1> loc(#loc41)
      %a_34 = tt.broadcast %a_33 : tensor<64x1xi1> -> tensor<64x32xi1> loc(#loc41)
      %a_35 = arith.cmpi sge, %a_26, %cst_1 : tensor<1x32xi64> loc(#loc41)
      %a_36 = tt.splat %a_bp_5 : i64 -> tensor<1x32xi64> loc(#loc41)
      %a_37 = arith.cmpi slt, %a_26, %a_36 : tensor<1x32xi64> loc(#loc41)
      %a_38 = arith.andi %a_35, %a_37 : tensor<1x32xi1> loc(#loc41)
      %a_39 = tt.broadcast %a_38 : tensor<1x32xi1> -> tensor<64x32xi1> loc(#loc41)
      %a_40 = arith.andi %a_34, %a_39 : tensor<64x32xi1> loc(#loc41)
      %a_41 = tt.load %a_29, %a_40 : tensor<64x32x!tt.ptr<f16>> loc(#loc41)
      %b = tt.splat %b_ptr : !tt.ptr<f16> -> tensor<32x64x!tt.ptr<f16>> loc(#loc42)
      %b_42 = tt.splat %b_bp_13 : i64 -> tensor<32xi64> loc(#loc42)
      %b_43 = arith.addi %b_42, %a_24 : tensor<32xi64> loc(#loc42)
      %b_44 = tt.expand_dims %b_43 {axis = 1 : i32} : tensor<32xi64> -> tensor<32x1xi64> loc(#loc42)
      %b_45 = tt.splat %b_bp_9 : i64 -> tensor<32x1xi64> loc(#loc42)
      %b_46 = arith.muli %b_44, %b_45 : tensor<32x1xi64> loc(#loc42)
      %b_47 = tt.broadcast %b_46 : tensor<32x1xi64> -> tensor<32x64xi64> loc(#loc42)
      %b_48 = tt.splat %b_bp_10 : i64 -> tensor<64xi64> loc(#loc42)
      %b_49 = arith.addi %b_48, %a_16 : tensor<64xi64> loc(#loc42)
      %b_50 = tt.expand_dims %b_49 {axis = 0 : i32} : tensor<64xi64> -> tensor<1x64xi64> loc(#loc42)
      %b_51 = tt.broadcast %b_50 : tensor<1x64xi64> -> tensor<32x64xi64> loc(#loc42)
      %b_52 = arith.addi %b_47, %b_51 : tensor<32x64xi64> loc(#loc42)
      %b_53 = tt.addptr %b, %b_52 : tensor<32x64x!tt.ptr<f16>>, tensor<32x64xi64> loc(#loc42)
      %b_54 = arith.cmpi sge, %b_44, %cst_0 : tensor<32x1xi64> loc(#loc42)
      %b_55 = tt.splat %a_bp_5 : i64 -> tensor<32x1xi64> loc(#loc42)
      %b_56 = arith.cmpi slt, %b_44, %b_55 : tensor<32x1xi64> loc(#loc42)
      %b_57 = arith.andi %b_54, %b_56 : tensor<32x1xi1> loc(#loc42)
      %b_58 = tt.broadcast %b_57 : tensor<32x1xi1> -> tensor<32x64xi1> loc(#loc42)
      %b_59 = arith.cmpi sge, %b_50, %cst : tensor<1x64xi64> loc(#loc42)
      %b_60 = tt.splat %b_bp_8 : i64 -> tensor<1x64xi64> loc(#loc42)
      %b_61 = arith.cmpi slt, %b_50, %b_60 : tensor<1x64xi64> loc(#loc42)
      %b_62 = arith.andi %b_59, %b_61 : tensor<1x64xi1> loc(#loc42)
      %b_63 = tt.broadcast %b_62 : tensor<1x64xi1> -> tensor<32x64xi1> loc(#loc42)
      %b_64 = arith.andi %b_58, %b_63 : tensor<32x64xi1> loc(#loc42)
      %b_65 = tt.load %b_53, %b_64 : tensor<32x64x!tt.ptr<f16>> loc(#loc42)
      %acc_66 = tt.dot %a_41, %b_65, %arg12, inputPrecision = tf32 : tensor<64x32xf16> * tensor<32x64xf16> -> tensor<64x64xf32> loc(#loc43)
      %a_bp_67 = arith.addi %a_bp_12, %c32_i64 : i64 loc(#loc44)
      %b_bp_68 = arith.addi %b_bp_13, %c32_i64 : i64 loc(#loc45)
      scf.yield %a_bp_67, %b_bp_68, %acc_66 : i64, i64, tensor<64x64xf32> loc(#loc17)
    } loc(#loc48)
    %c_bp = arith.extsi %stride_cm : i32 to i64 loc(#loc46)
    %2 = arith.truncf %acc#2 : tensor<64x64xf32> to tensor<64x64xf16> loc(#loc19)
    %3 = tt.splat %c_ptr : !tt.ptr<f16> -> tensor<64x64x!tt.ptr<f16>> loc(#loc20)
    %4 = tt.splat %a_bp_7 : i64 -> tensor<64xi64> loc(#loc20)
    %5 = tt.make_range {end = 64 : i32, start = 0 : i32} : tensor<64xi32> loc(#loc20)
    %6 = arith.extsi %5 : tensor<64xi32> to tensor<64xi64> loc(#loc20)
    %7 = arith.addi %4, %6 : tensor<64xi64> loc(#loc20)
    %8 = tt.expand_dims %7 {axis = 1 : i32} : tensor<64xi64> -> tensor<64x1xi64> loc(#loc20)
    %9 = tt.splat %c_bp : i64 -> tensor<64x1xi64> loc(#loc20)
    %10 = arith.muli %8, %9 : tensor<64x1xi64> loc(#loc20)
    %11 = tt.broadcast %10 : tensor<64x1xi64> -> tensor<64x64xi64> loc(#loc20)
    %12 = tt.splat %b_bp_10 : i64 -> tensor<64xi64> loc(#loc20)
    %13 = arith.addi %12, %6 : tensor<64xi64> loc(#loc20)
    %14 = tt.expand_dims %13 {axis = 0 : i32} : tensor<64xi64> -> tensor<1x64xi64> loc(#loc20)
    %15 = tt.broadcast %14 : tensor<1x64xi64> -> tensor<64x64xi64> loc(#loc20)
    %16 = arith.addi %11, %15 : tensor<64x64xi64> loc(#loc20)
    %17 = tt.addptr %3, %16 : tensor<64x64x!tt.ptr<f16>>, tensor<64x64xi64> loc(#loc20)
    %18 = arith.cmpi sge, %8, %cst_2 : tensor<64x1xi64> loc(#loc20)
    %19 = tt.splat %a_bp_4 : i64 -> tensor<64x1xi64> loc(#loc20)
    %20 = arith.cmpi slt, %8, %19 : tensor<64x1xi64> loc(#loc20)
    %21 = arith.andi %18, %20 : tensor<64x1xi1> loc(#loc20)
    %22 = tt.broadcast %21 : tensor<64x1xi1> -> tensor<64x64xi1> loc(#loc20)
    %23 = arith.cmpi sge, %14, %cst : tensor<1x64xi64> loc(#loc20)
    %24 = tt.splat %b_bp_8 : i64 -> tensor<1x64xi64> loc(#loc20)
    %25 = arith.cmpi slt, %14, %24 : tensor<1x64xi64> loc(#loc20)
    %26 = arith.andi %23, %25 : tensor<1x64xi1> loc(#loc20)
    %27 = tt.broadcast %26 : tensor<1x64xi1> -> tensor<64x64xi1> loc(#loc20)
    %28 = arith.andi %22, %27 : tensor<64x64xi1> loc(#loc20)
    tt.store %17, %2, %28 : tensor<64x64x!tt.ptr<f16>> loc(#loc20)
    tt.return loc(#loc21)
  } loc(#loc)
} loc(#loc)
#loc1 = loc(unknown)
#loc2 = loc("/home/hwu27/workspace/triton-viz/tests/golden/ttgir/generate_golden.py":90:33)
#loc3 = loc("/home/hwu27/workspace/triton-viz/tests/golden/ttgir/generate_golden.py":90:22)
#loc4 = loc("/home/hwu27/workspace/triton-viz/tests/golden/ttgir/generate_golden.py":81:26)
#loc5 = loc("/home/hwu27/workspace/triton-viz/tests/golden/ttgir/generate_golden.py":82:26)
#loc6 = loc("/home/hwu27/workspace/triton-viz/tests/golden/ttgir/generate_golden.py":84:48)
#loc7 = loc("/home/hwu27/workspace/triton-viz/tests/golden/ttgir/generate_golden.py":84:81)
#loc8 = loc("/home/hwu27/workspace/triton-viz/tests/golden/ttgir/generate_golden.py":87:51)
#loc9 = loc("/home/hwu27/workspace/triton-viz/tests/golden/ttgir/generate_golden.py":87:81)
#loc10 = loc("/home/hwu27/workspace/triton-viz/.venv/lib/python3.12/site-packages/triton/language/standard.py":43:17)
#loc11 = loc("/home/hwu27/workspace/triton-viz/.venv/lib/python3.12/site-packages/triton/language/standard.py":43:30)
#loc12 = loc("/home/hwu27/workspace/triton-viz/tests/golden/ttgir/generate_golden.py":91:20)
#loc13 = loc("/home/hwu27/workspace/triton-viz/tests/golden/ttgir/generate_golden.py":92:20)
#loc14 = loc("/home/hwu27/workspace/triton-viz/tests/golden/ttgir/generate_golden.py":93:25)
#loc15 = loc("/home/hwu27/workspace/triton-viz/tests/golden/ttgir/generate_golden.py":94:32)
#loc16 = loc("/home/hwu27/workspace/triton-viz/tests/golden/ttgir/generate_golden.py":95:32)
#loc17 = loc("/home/hwu27/workspace/triton-viz/tests/golden/ttgir/generate_golden.py":95:8)
#loc18 = loc("/home/hwu27/workspace/triton-viz/tests/golden/ttgir/generate_golden.py":102:8)
#loc19 = loc("/home/hwu27/workspace/triton-viz/tests/golden/ttgir/generate_golden.py":104:26)
#loc20 = loc("/home/hwu27/workspace/triton-viz/tests/golden/ttgir/generate_golden.py":104:19)
#loc21 = loc("/home/hwu27/workspace/triton-viz/tests/golden/ttgir/generate_golden.py":104:4)
#loc31 = loc(callsite(#loc1 at #loc2))
#loc32 = loc("pid_m"(#loc4))
#loc33 = loc("pid_n"(#loc5))
#loc34 = loc("a_bp"(#loc6))
#loc35 = loc("a_bp"(#loc7))
#loc36 = loc("b_bp"(#loc8))
#loc37 = loc("b_bp"(#loc9))
#loc38 = loc(callsite(#loc10 at #loc2))
#loc39 = loc(callsite(#loc11 at #loc2))
#loc40 = loc("a_bp"(#loc3))
#loc41 = loc("a"(#loc12))
#loc42 = loc("b"(#loc13))
#loc43 = loc("acc"(#loc14))
#loc44 = loc("a_bp"(#loc15))
#loc45 = loc("b_bp"(#loc16))
#loc46 = loc("c_bp"(#loc18))
#loc47 = loc("b_bp"(#loc40))
#loc48 = loc("acc"(#loc47))
