#loc = loc("/home/hwu27/workspace/triton-viz/tests/golden/ttgir/generate_golden.py":28:0)
#loc44 = loc("a_ptr"(#loc))
#loc45 = loc("b_ptr"(#loc))
#loc46 = loc("c_ptr"(#loc))
#loc47 = loc("M"(#loc))
#loc48 = loc("N"(#loc))
#loc49 = loc("K"(#loc))
#loc50 = loc("stride_am"(#loc))
#loc51 = loc("stride_bk"(#loc))
#loc52 = loc("stride_cm"(#loc))
module {
  tt.func public @matmul_kernel(%a_ptr: !tt.ptr<f16> {tt.divisibility = 16 : i32} loc("a_ptr"(#loc)), %b_ptr: !tt.ptr<f16> {tt.divisibility = 16 : i32} loc("b_ptr"(#loc)), %c_ptr: !tt.ptr<f16> {tt.divisibility = 16 : i32} loc("c_ptr"(#loc)), %M: i32 {tt.divisibility = 16 : i32} loc("M"(#loc)), %N: i32 {tt.divisibility = 16 : i32} loc("N"(#loc)), %K: i32 {tt.divisibility = 16 : i32} loc("K"(#loc)), %stride_am: i32 {tt.divisibility = 16 : i32} loc("stride_am"(#loc)), %stride_bk: i32 {tt.divisibility = 16 : i32} loc("stride_bk"(#loc)), %stride_cm: i32 {tt.divisibility = 16 : i32} loc("stride_cm"(#loc))) attributes {noinline = false} {
    %c31_i32 = arith.constant 31 : i32 loc(#loc53)
    %cst = arith.constant dense<0.000000e+00> : tensor<32x64xf16> loc(#loc1)
    %cst_0 = arith.constant dense<0.000000e+00> : tensor<64x32xf16> loc(#loc1)
    %c1_i32 = arith.constant 1 : i32 loc(#loc3)
    %c0_i32 = arith.constant 0 : i32 loc(#loc3)
    %cst_1 = arith.constant dense<32> : tensor<64x32xi32> loc(#loc1)
    %cst_2 = arith.constant dense<0.000000e+00> : tensor<64x64xf32> loc(#loc1)
    %c32_i32 = arith.constant 32 : i32 loc(#loc1)
    %c64_i32 = arith.constant 64 : i32 loc(#loc1)
    %pid_m = tt.get_program_id x : i32 loc(#loc54)
    %pid_n = tt.get_program_id y : i32 loc(#loc55)
    %offs_m = arith.muli %pid_m, %c64_i32 : i32 loc(#loc56)
    %offs_m_3 = tt.make_range {end = 64 : i32, start = 0 : i32} : tensor<64xi32> loc(#loc57)
    %offs_m_4 = tt.splat %offs_m : i32 -> tensor<64xi32> loc(#loc58)
    %offs_m_5 = arith.addi %offs_m_4, %offs_m_3 : tensor<64xi32> loc(#loc58)
    %offs_n = arith.muli %pid_n, %c64_i32 : i32 loc(#loc59)
    %offs_n_6 = tt.splat %offs_n : i32 -> tensor<64xi32> loc(#loc60)
    %offs_n_7 = arith.addi %offs_n_6, %offs_m_3 : tensor<64xi32> loc(#loc60)
    %offs_k = tt.make_range {end = 32 : i32, start = 0 : i32} : tensor<32xi32> loc(#loc61)
    %a_ptrs = tt.expand_dims %offs_m_5 {axis = 1 : i32} : tensor<64xi32> -> tensor<64x1xi32> loc(#loc62)
    %a_ptrs_8 = tt.splat %stride_am : i32 -> tensor<64x1xi32> loc(#loc63)
    %a_ptrs_9 = arith.muli %a_ptrs, %a_ptrs_8 : tensor<64x1xi32> loc(#loc63)
    %a_ptrs_10 = tt.splat %a_ptr : !tt.ptr<f16> -> tensor<64x1x!tt.ptr<f16>> loc(#loc64)
    %a_ptrs_11 = tt.addptr %a_ptrs_10, %a_ptrs_9 : tensor<64x1x!tt.ptr<f16>>, tensor<64x1xi32> loc(#loc64)
    %a_ptrs_12 = tt.expand_dims %offs_k {axis = 0 : i32} : tensor<32xi32> -> tensor<1x32xi32> loc(#loc65)
    %a_ptrs_13 = tt.broadcast %a_ptrs_11 : tensor<64x1x!tt.ptr<f16>> -> tensor<64x32x!tt.ptr<f16>> loc(#loc66)
    %a_ptrs_14 = tt.broadcast %a_ptrs_12 : tensor<1x32xi32> -> tensor<64x32xi32> loc(#loc66)
    %a_ptrs_15 = tt.addptr %a_ptrs_13, %a_ptrs_14 : tensor<64x32x!tt.ptr<f16>>, tensor<64x32xi32> loc(#loc66)
    %b_ptrs = tt.expand_dims %offs_k {axis = 1 : i32} : tensor<32xi32> -> tensor<32x1xi32> loc(#loc67)
    %b_ptrs_16 = tt.splat %stride_bk : i32 -> tensor<32x1xi32> loc(#loc68)
    %b_ptrs_17 = arith.muli %b_ptrs, %b_ptrs_16 : tensor<32x1xi32> loc(#loc68)
    %b_ptrs_18 = tt.splat %b_ptr : !tt.ptr<f16> -> tensor<32x1x!tt.ptr<f16>> loc(#loc69)
    %b_ptrs_19 = tt.addptr %b_ptrs_18, %b_ptrs_17 : tensor<32x1x!tt.ptr<f16>>, tensor<32x1xi32> loc(#loc69)
    %b_ptrs_20 = tt.expand_dims %offs_n_7 {axis = 0 : i32} : tensor<64xi32> -> tensor<1x64xi32> loc(#loc70)
    %b_ptrs_21 = tt.broadcast %b_ptrs_19 : tensor<32x1x!tt.ptr<f16>> -> tensor<32x64x!tt.ptr<f16>> loc(#loc71)
    %b_ptrs_22 = tt.broadcast %b_ptrs_20 : tensor<1x64xi32> -> tensor<32x64xi32> loc(#loc71)
    %b_ptrs_23 = tt.addptr %b_ptrs_21, %b_ptrs_22 : tensor<32x64x!tt.ptr<f16>>, tensor<32x64xi32> loc(#loc71)
    %0 = arith.addi %K, %c31_i32 : i32 loc(#loc72)
    %1 = arith.divsi %0, %c32_i32 : i32 loc(#loc73)
    %acc:3 = scf.for %k = %c0_i32 to %1 step %c1_i32 iter_args(%a_ptrs_36 = %a_ptrs_15, %b_ptrs_37 = %b_ptrs_23, %acc_38 = %cst_2) -> (tensor<64x32x!tt.ptr<f16>>, tensor<32x64x!tt.ptr<f16>>, tensor<64x64xf32>)  : i32 {
      %a = arith.muli %k, %c32_i32 : i32 loc(#loc75)
      %a_39 = arith.subi %K, %a : i32 loc(#loc76)
      %a_40 = tt.splat %a_39 : i32 -> tensor<1x32xi32> loc(#loc77)
      %a_41 = arith.cmpi slt, %a_ptrs_12, %a_40 : tensor<1x32xi32> loc(#loc77)
      %a_42 = tt.broadcast %a_41 : tensor<1x32xi1> -> tensor<64x32xi1> loc(#loc78)
      %a_43 = tt.load %a_ptrs_36, %a_42, %cst_0 : tensor<64x32x!tt.ptr<f16>> loc(#loc78)
      %b = tt.splat %a_39 : i32 -> tensor<32x1xi32> loc(#loc79)
      %b_44 = arith.cmpi slt, %b_ptrs, %b : tensor<32x1xi32> loc(#loc79)
      %b_45 = tt.broadcast %b_44 : tensor<32x1xi1> -> tensor<32x64xi1> loc(#loc80)
      %b_46 = tt.load %b_ptrs_37, %b_45, %cst : tensor<32x64x!tt.ptr<f16>> loc(#loc80)
      %acc_47 = tt.dot %a_43, %b_46, %acc_38, inputPrecision = tf32 : tensor<64x32xf16> * tensor<32x64xf16> -> tensor<64x64xf32> loc(#loc81)
      %a_ptrs_48 = tt.addptr %a_ptrs_36, %cst_1 : tensor<64x32x!tt.ptr<f16>>, tensor<64x32xi32> loc(#loc82)
      %b_ptrs_49 = arith.muli %stride_bk, %c32_i32 : i32 loc(#loc83)
      %b_ptrs_50 = tt.splat %b_ptrs_49 : i32 -> tensor<32x64xi32> loc(#loc84)
      %b_ptrs_51 = tt.addptr %b_ptrs_37, %b_ptrs_50 : tensor<32x64x!tt.ptr<f16>>, tensor<32x64xi32> loc(#loc84)
      scf.yield %a_ptrs_48, %b_ptrs_51, %acc_47 : tensor<64x32x!tt.ptr<f16>>, tensor<32x64x!tt.ptr<f16>>, tensor<64x64xf32> loc(#loc34)
    } loc(#loc93)
    %c = arith.truncf %acc#2 : tensor<64x64xf32> to tensor<64x64xf16> loc(#loc85)
    %c_ptrs = tt.splat %stride_cm : i32 -> tensor<64x1xi32> loc(#loc86)
    %c_ptrs_24 = arith.muli %a_ptrs, %c_ptrs : tensor<64x1xi32> loc(#loc86)
    %c_ptrs_25 = tt.splat %c_ptr : !tt.ptr<f16> -> tensor<64x1x!tt.ptr<f16>> loc(#loc87)
    %c_ptrs_26 = tt.addptr %c_ptrs_25, %c_ptrs_24 : tensor<64x1x!tt.ptr<f16>>, tensor<64x1xi32> loc(#loc87)
    %c_ptrs_27 = tt.broadcast %c_ptrs_26 : tensor<64x1x!tt.ptr<f16>> -> tensor<64x64x!tt.ptr<f16>> loc(#loc88)
    %c_ptrs_28 = tt.broadcast %b_ptrs_20 : tensor<1x64xi32> -> tensor<64x64xi32> loc(#loc88)
    %c_ptrs_29 = tt.addptr %c_ptrs_27, %c_ptrs_28 : tensor<64x64x!tt.ptr<f16>>, tensor<64x64xi32> loc(#loc88)
    %c_mask = tt.splat %M : i32 -> tensor<64x1xi32> loc(#loc89)
    %c_mask_30 = arith.cmpi slt, %a_ptrs, %c_mask : tensor<64x1xi32> loc(#loc89)
    %c_mask_31 = tt.splat %N : i32 -> tensor<1x64xi32> loc(#loc90)
    %c_mask_32 = arith.cmpi slt, %b_ptrs_20, %c_mask_31 : tensor<1x64xi32> loc(#loc90)
    %c_mask_33 = tt.broadcast %c_mask_30 : tensor<64x1xi1> -> tensor<64x64xi1> loc(#loc91)
    %c_mask_34 = tt.broadcast %c_mask_32 : tensor<1x64xi1> -> tensor<64x64xi1> loc(#loc91)
    %c_mask_35 = arith.andi %c_mask_33, %c_mask_34 : tensor<64x64xi1> loc(#loc91)
    tt.store %c_ptrs_29, %c, %c_mask_35 : tensor<64x64x!tt.ptr<f16>> loc(#loc42)
    tt.return loc(#loc43)
  } loc(#loc)
} loc(#loc)
#loc1 = loc(unknown)
#loc2 = loc("/home/hwu27/workspace/triton-viz/tests/golden/ttgir/generate_golden.py":53:33)
#loc3 = loc("/home/hwu27/workspace/triton-viz/tests/golden/ttgir/generate_golden.py":53:22)
#loc4 = loc("/home/hwu27/workspace/triton-viz/tests/golden/ttgir/generate_golden.py":42:26)
#loc5 = loc("/home/hwu27/workspace/triton-viz/tests/golden/ttgir/generate_golden.py":43:26)
#loc6 = loc("/home/hwu27/workspace/triton-viz/tests/golden/ttgir/generate_golden.py":45:21)
#loc7 = loc("/home/hwu27/workspace/triton-viz/tests/golden/ttgir/generate_golden.py":45:44)
#loc8 = loc("/home/hwu27/workspace/triton-viz/tests/golden/ttgir/generate_golden.py":45:31)
#loc9 = loc("/home/hwu27/workspace/triton-viz/tests/golden/ttgir/generate_golden.py":46:21)
#loc10 = loc("/home/hwu27/workspace/triton-viz/tests/golden/ttgir/generate_golden.py":46:31)
#loc11 = loc("/home/hwu27/workspace/triton-viz/tests/golden/ttgir/generate_golden.py":47:26)
#loc12 = loc("/home/hwu27/workspace/triton-viz/tests/golden/ttgir/generate_golden.py":49:28)
#loc13 = loc("/home/hwu27/workspace/triton-viz/tests/golden/ttgir/generate_golden.py":49:39)
#loc14 = loc("/home/hwu27/workspace/triton-viz/tests/golden/ttgir/generate_golden.py":49:21)
#loc15 = loc("/home/hwu27/workspace/triton-viz/tests/golden/ttgir/generate_golden.py":49:58)
#loc16 = loc("/home/hwu27/workspace/triton-viz/tests/golden/ttgir/generate_golden.py":49:51)
#loc17 = loc("/home/hwu27/workspace/triton-viz/tests/golden/ttgir/generate_golden.py":50:28)
#loc18 = loc("/home/hwu27/workspace/triton-viz/tests/golden/ttgir/generate_golden.py":50:39)
#loc19 = loc("/home/hwu27/workspace/triton-viz/tests/golden/ttgir/generate_golden.py":50:21)
#loc20 = loc("/home/hwu27/workspace/triton-viz/tests/golden/ttgir/generate_golden.py":50:58)
#loc21 = loc("/home/hwu27/workspace/triton-viz/tests/golden/ttgir/generate_golden.py":50:51)
#loc22 = loc("/home/hwu27/workspace/triton-viz/.venv/lib/python3.12/site-packages/triton/language/standard.py":43:17)
#loc23 = loc("/home/hwu27/workspace/triton-viz/.venv/lib/python3.12/site-packages/triton/language/standard.py":43:30)
#loc24 = loc("/home/hwu27/workspace/triton-viz/tests/golden/ttgir/generate_golden.py":54:59)
#loc25 = loc("/home/hwu27/workspace/triton-viz/tests/golden/ttgir/generate_golden.py":54:55)
#loc26 = loc("/home/hwu27/workspace/triton-viz/tests/golden/ttgir/generate_golden.py":54:51)
#loc27 = loc("/home/hwu27/workspace/triton-viz/tests/golden/ttgir/generate_golden.py":54:20)
#loc28 = loc("/home/hwu27/workspace/triton-viz/tests/golden/ttgir/generate_golden.py":55:51)
#loc29 = loc("/home/hwu27/workspace/triton-viz/tests/golden/ttgir/generate_golden.py":55:20)
#loc30 = loc("/home/hwu27/workspace/triton-viz/tests/golden/ttgir/generate_golden.py":56:25)
#loc31 = loc("/home/hwu27/workspace/triton-viz/tests/golden/ttgir/generate_golden.py":57:18)
#loc32 = loc("/home/hwu27/workspace/triton-viz/tests/golden/ttgir/generate_golden.py":58:28)
#loc33 = loc("/home/hwu27/workspace/triton-viz/tests/golden/ttgir/generate_golden.py":58:18)
#loc34 = loc("/home/hwu27/workspace/triton-viz/tests/golden/ttgir/generate_golden.py":58:8)
#loc35 = loc("/home/hwu27/workspace/triton-viz/tests/golden/ttgir/generate_golden.py":60:15)
#loc36 = loc("/home/hwu27/workspace/triton-viz/tests/golden/ttgir/generate_golden.py":61:39)
#loc37 = loc("/home/hwu27/workspace/triton-viz/tests/golden/ttgir/generate_golden.py":61:21)
#loc38 = loc("/home/hwu27/workspace/triton-viz/tests/golden/ttgir/generate_golden.py":61:51)
#loc39 = loc("/home/hwu27/workspace/triton-viz/tests/golden/ttgir/generate_golden.py":62:32)
#loc40 = loc("/home/hwu27/workspace/triton-viz/tests/golden/ttgir/generate_golden.py":62:56)
#loc41 = loc("/home/hwu27/workspace/triton-viz/tests/golden/ttgir/generate_golden.py":62:38)
#loc42 = loc("/home/hwu27/workspace/triton-viz/tests/golden/ttgir/generate_golden.py":63:21)
#loc43 = loc("/home/hwu27/workspace/triton-viz/tests/golden/ttgir/generate_golden.py":63:4)
#loc53 = loc(callsite(#loc1 at #loc2))
#loc54 = loc("pid_m"(#loc4))
#loc55 = loc("pid_n"(#loc5))
#loc56 = loc("offs_m"(#loc6))
#loc57 = loc("offs_m"(#loc7))
#loc58 = loc("offs_m"(#loc8))
#loc59 = loc("offs_n"(#loc9))
#loc60 = loc("offs_n"(#loc10))
#loc61 = loc("offs_k"(#loc11))
#loc62 = loc("a_ptrs"(#loc12))
#loc63 = loc("a_ptrs"(#loc13))
#loc64 = loc("a_ptrs"(#loc14))
#loc65 = loc("a_ptrs"(#loc15))
#loc66 = loc("a_ptrs"(#loc16))
#loc67 = loc("b_ptrs"(#loc17))
#loc68 = loc("b_ptrs"(#loc18))
#loc69 = loc("b_ptrs"(#loc19))
#loc70 = loc("b_ptrs"(#loc20))
#loc71 = loc("b_ptrs"(#loc21))
#loc72 = loc(callsite(#loc22 at #loc2))
#loc73 = loc(callsite(#loc23 at #loc2))
#loc74 = loc("a_ptrs"(#loc3))
#loc75 = loc("a"(#loc24))
#loc76 = loc("a"(#loc25))
#loc77 = loc("a"(#loc26))
#loc78 = loc("a"(#loc27))
#loc79 = loc("b"(#loc28))
#loc80 = loc("b"(#loc29))
#loc81 = loc("acc"(#loc30))
#loc82 = loc("a_ptrs"(#loc31))
#loc83 = loc("b_ptrs"(#loc32))
#loc84 = loc("b_ptrs"(#loc33))
#loc85 = loc("c"(#loc35))
#loc86 = loc("c_ptrs"(#loc36))
#loc87 = loc("c_ptrs"(#loc37))
#loc88 = loc("c_ptrs"(#loc38))
#loc89 = loc("c_mask"(#loc39))
#loc90 = loc("c_mask"(#loc40))
#loc91 = loc("c_mask"(#loc41))
#loc92 = loc("b_ptrs"(#loc74))
#loc93 = loc("acc"(#loc92))
