#loc = loc("/home/hwu27/workspace/triton-viz/tests/golden/ttgir/generate_golden.py":118:0)
#loc24 = loc("in_ptr"(#loc))
#loc25 = loc("out_ptr"(#loc))
#loc26 = loc("M"(#loc))
#loc27 = loc("N"(#loc))
#loc28 = loc("stride_m"(#loc))
#loc29 = loc("stride_n"(#loc))
module {
  tt.func public @tile2d_kernel(%in_ptr: !tt.ptr<f32> {tt.divisibility = 16 : i32} loc("in_ptr"(#loc)), %out_ptr: !tt.ptr<f32> {tt.divisibility = 16 : i32} loc("out_ptr"(#loc)), %M: i32 {tt.divisibility = 16 : i32} loc("M"(#loc)), %N: i32 {tt.divisibility = 16 : i32} loc("N"(#loc)), %stride_m: i32 {tt.divisibility = 16 : i32} loc("stride_m"(#loc)), %stride_n: i32 {tt.divisibility = 16 : i32} loc("stride_n"(#loc))) attributes {noinline = false} {
    %cst = arith.constant dense<2.000000e+00> : tensor<32x32xf32> loc(#loc1)
    %vals = arith.constant dense<0.000000e+00> : tensor<32x32xf32> loc(#loc30)
    %c32_i32 = arith.constant 32 : i32 loc(#loc3)
    %pid_m = tt.get_program_id x : i32 loc(#loc31)
    %pid_n = tt.get_program_id y : i32 loc(#loc32)
    %offs_m = arith.muli %pid_m, %c32_i32 : i32 loc(#loc33)
    %offs_m_0 = tt.make_range {end = 32 : i32, start = 0 : i32} : tensor<32xi32> loc(#loc34)
    %offs_m_1 = tt.splat %offs_m : i32 -> tensor<32xi32> loc(#loc35)
    %offs_m_2 = arith.addi %offs_m_1, %offs_m_0 : tensor<32xi32> loc(#loc35)
    %offs_n = arith.muli %pid_n, %c32_i32 : i32 loc(#loc36)
    %offs_n_3 = tt.splat %offs_n : i32 -> tensor<32xi32> loc(#loc37)
    %offs_n_4 = arith.addi %offs_n_3, %offs_m_0 : tensor<32xi32> loc(#loc37)
    %ptrs = tt.expand_dims %offs_m_2 {axis = 1 : i32} : tensor<32xi32> -> tensor<32x1xi32> loc(#loc38)
    %ptrs_5 = tt.splat %stride_m : i32 -> tensor<32x1xi32> loc(#loc39)
    %ptrs_6 = arith.muli %ptrs, %ptrs_5 : tensor<32x1xi32> loc(#loc39)
    %ptrs_7 = tt.splat %in_ptr : !tt.ptr<f32> -> tensor<32x1x!tt.ptr<f32>> loc(#loc40)
    %ptrs_8 = tt.addptr %ptrs_7, %ptrs_6 : tensor<32x1x!tt.ptr<f32>>, tensor<32x1xi32> loc(#loc40)
    %ptrs_9 = tt.expand_dims %offs_n_4 {axis = 0 : i32} : tensor<32xi32> -> tensor<1x32xi32> loc(#loc41)
    %ptrs_10 = tt.splat %stride_n : i32 -> tensor<1x32xi32> loc(#loc42)
    %ptrs_11 = arith.muli %ptrs_9, %ptrs_10 : tensor<1x32xi32> loc(#loc42)
    %ptrs_12 = tt.broadcast %ptrs_8 : tensor<32x1x!tt.ptr<f32>> -> tensor<32x32x!tt.ptr<f32>> loc(#loc43)
    %ptrs_13 = tt.broadcast %ptrs_11 : tensor<1x32xi32> -> tensor<32x32xi32> loc(#loc43)
    %ptrs_14 = tt.addptr %ptrs_12, %ptrs_13 : tensor<32x32x!tt.ptr<f32>>, tensor<32x32xi32> loc(#loc43)
    %mask = tt.splat %M : i32 -> tensor<32x1xi32> loc(#loc44)
    %mask_15 = arith.cmpi slt, %ptrs, %mask : tensor<32x1xi32> loc(#loc44)
    %mask_16 = tt.splat %N : i32 -> tensor<1x32xi32> loc(#loc45)
    %mask_17 = arith.cmpi slt, %ptrs_9, %mask_16 : tensor<1x32xi32> loc(#loc45)
    %mask_18 = tt.broadcast %mask_15 : tensor<32x1xi1> -> tensor<32x32xi1> loc(#loc46)
    %mask_19 = tt.broadcast %mask_17 : tensor<1x32xi1> -> tensor<32x32xi1> loc(#loc46)
    %mask_20 = arith.andi %mask_18, %mask_19 : tensor<32x32xi1> loc(#loc46)
    %vals_21 = tt.load %ptrs_14, %mask_20, %vals : tensor<32x32x!tt.ptr<f32>> loc(#loc30)
    %optrs = tt.splat %out_ptr : !tt.ptr<f32> -> tensor<32x1x!tt.ptr<f32>> loc(#loc47)
    %optrs_22 = tt.addptr %optrs, %ptrs_6 : tensor<32x1x!tt.ptr<f32>>, tensor<32x1xi32> loc(#loc47)
    %optrs_23 = tt.broadcast %optrs_22 : tensor<32x1x!tt.ptr<f32>> -> tensor<32x32x!tt.ptr<f32>> loc(#loc48)
    %optrs_24 = tt.addptr %optrs_23, %ptrs_13 : tensor<32x32x!tt.ptr<f32>>, tensor<32x32xi32> loc(#loc48)
    %0 = arith.mulf %vals_21, %cst : tensor<32x32xf32> loc(#loc1)
    tt.store %optrs_24, %0, %mask_20 : tensor<32x32x!tt.ptr<f32>> loc(#loc22)
    tt.return loc(#loc23)
  } loc(#loc)
} loc(#loc)
#loc1 = loc("/home/hwu27/workspace/triton-viz/tests/golden/ttgir/generate_golden.py":129:27)
#loc2 = loc("/home/hwu27/workspace/triton-viz/tests/golden/ttgir/generate_golden.py":127:19)
#loc3 = loc(unknown)
#loc4 = loc("/home/hwu27/workspace/triton-viz/tests/golden/ttgir/generate_golden.py":121:26)
#loc5 = loc("/home/hwu27/workspace/triton-viz/tests/golden/ttgir/generate_golden.py":122:26)
#loc6 = loc("/home/hwu27/workspace/triton-viz/tests/golden/ttgir/generate_golden.py":123:21)
#loc7 = loc("/home/hwu27/workspace/triton-viz/tests/golden/ttgir/generate_golden.py":123:44)
#loc8 = loc("/home/hwu27/workspace/triton-viz/tests/golden/ttgir/generate_golden.py":123:31)
#loc9 = loc("/home/hwu27/workspace/triton-viz/tests/golden/ttgir/generate_golden.py":124:21)
#loc10 = loc("/home/hwu27/workspace/triton-viz/tests/golden/ttgir/generate_golden.py":124:31)
#loc11 = loc("/home/hwu27/workspace/triton-viz/tests/golden/ttgir/generate_golden.py":125:27)
#loc12 = loc("/home/hwu27/workspace/triton-viz/tests/golden/ttgir/generate_golden.py":125:38)
#loc13 = loc("/home/hwu27/workspace/triton-viz/tests/golden/ttgir/generate_golden.py":125:20)
#loc14 = loc("/home/hwu27/workspace/triton-viz/tests/golden/ttgir/generate_golden.py":125:56)
#loc15 = loc("/home/hwu27/workspace/triton-viz/tests/golden/ttgir/generate_golden.py":125:67)
#loc16 = loc("/home/hwu27/workspace/triton-viz/tests/golden/ttgir/generate_golden.py":125:49)
#loc17 = loc("/home/hwu27/workspace/triton-viz/tests/golden/ttgir/generate_golden.py":126:30)
#loc18 = loc("/home/hwu27/workspace/triton-viz/tests/golden/ttgir/generate_golden.py":126:54)
#loc19 = loc("/home/hwu27/workspace/triton-viz/tests/golden/ttgir/generate_golden.py":126:36)
#loc20 = loc("/home/hwu27/workspace/triton-viz/tests/golden/ttgir/generate_golden.py":128:22)
#loc21 = loc("/home/hwu27/workspace/triton-viz/tests/golden/ttgir/generate_golden.py":128:51)
#loc22 = loc("/home/hwu27/workspace/triton-viz/tests/golden/ttgir/generate_golden.py":129:20)
#loc23 = loc("/home/hwu27/workspace/triton-viz/tests/golden/ttgir/generate_golden.py":129:4)
#loc30 = loc("vals"(#loc2))
#loc31 = loc("pid_m"(#loc4))
#loc32 = loc("pid_n"(#loc5))
#loc33 = loc("offs_m"(#loc6))
#loc34 = loc("offs_m"(#loc7))
#loc35 = loc("offs_m"(#loc8))
#loc36 = loc("offs_n"(#loc9))
#loc37 = loc("offs_n"(#loc10))
#loc38 = loc("ptrs"(#loc11))
#loc39 = loc("ptrs"(#loc12))
#loc40 = loc("ptrs"(#loc13))
#loc41 = loc("ptrs"(#loc14))
#loc42 = loc("ptrs"(#loc15))
#loc43 = loc("ptrs"(#loc16))
#loc44 = loc("mask"(#loc17))
#loc45 = loc("mask"(#loc18))
#loc46 = loc("mask"(#loc19))
#loc47 = loc("optrs"(#loc20))
#loc48 = loc("optrs"(#loc21))
